bias_IW.npy (npy, 768 bytes, 1 tensors)

array f8 [80]
000000 3b 79 0a 92 a7 f0 22 c0 45 9c 86 d5 8c b1 09 40
       -9.47002846124507 3.21169440094994
000010 e7 8b f0 4a 44 ea 00 40 2d 14 e9 c0 4e c4 17 40
       2.11438807055082 5.94170667097664
000020 02 da e3 6a 61 6a 00 c0 53 fa 0e 09 cd 26 d4 bf
       -2.05194362171028 -0.314868220182608
000030 10 c0 e1 93 02 ac 08 c0 4d f3 33 f2 e9 3c 17 c0
       -3.08398929150281 -5.80948618356781
000040 8a 39 3d d8 db 34 02 c0 bc 0c 24 80 f1 ca 1a c0
       -2.27580994545787 -6.69818687648802
000050 51 42 71 67 4d 20 f0 bf f6 4c bf 06 c9 1d 04 40
       -1.0078863182754 2.51454358359626
000060 57 14 98 d3 9e db 12 40 67 64 14 0a da 6a 05 c0
       4.71447306266517 -2.67717368960125
000070 42 be 11 a2 63 33 f6 bf da 15 93 1f a5 f9 09 c0
       -1.38754618938755 -3.24689697902316
000080 18 0e 9d b4 9c 9a 02 40 9a 53 34 ed 10 26 08 c0
       2.32549420456213 -3.01858697238863
000090 43 73 05 02 ab 20 11 c0 76 87 d7 f3 bc da 20 40
       -4.28190234335199 8.42722284322711
0000a0 7b 30 7c a3 8f 19 e7 3f a4 a4 f5 c1 b7 29 e8 bf
       0.721870250040879 -0.755092505290254
0000b0 40 f3 9c 82 52 e7 1a c0 b4 87 d0 4e 75 d9 05 40
       -6.72590068896244 2.73118077825435
0000c0 10 ba 93 11 2c 17 01 40 1d 51 92 25 df a9 07 c0
       2.13631452304913 -2.95794514992498
0000d0 3a fc 21 b6 e0 a4 0c c0 66 af 97 97 e1 40 ef bf
       -3.58050672808852 -0.976670070723668
0000e0 6b be bf ee 43 a5 f8 bf a2 a4 d8 9e 56 2b 02 c0
       -1.54034798871353 -2.2711613092293
0000f0 0e 34 a0 18 77 d3 01 40 94 8a c8 b3 b2 d5 e8 3f
       2.22825450171377 0.776086188449272
000100 cf 27 7f 55 46 16 f6 bf 2f 17 cb 39 e1 cc 0c c0
       -1.38043816945218 -3.60003895903619
000110 8d 41 3f 99 b9 1d 15 c0 4e 02 b9 e8 2b 23 f3 bf
       -5.27902831505379 -1.19608679683019
000120 b2 e2 6c a5 62 3f fa bf 3b 2b 76 2e 82 c4 10 c0
       -1.6404749357154 -4.19190285297628
000130 ad a1 81 b2 f5 5e 10 c0 38 0f a7 c8 12 a1 14 c0
       -4.09273413578232 -5.15729821700716
000140 de 4d a1 0b 65 c2 0e c0 91 91 60 1d 9b 6f 01 c0
       -3.84491929136287 -2.17949507666544
000150 44 31 ad 83 ca ca 09 40 3e 8a ad 54 e6 7d e1 3f
       3.22401907799045 0.546618619333749
000160 b9 f2 27 48 fa 0e 11 40 a1 09 97 0c 77 65 1f c0
       4.2646266245253 -7.84908694908009
000170 e8 bd 6b e2 3d b4 e9 bf 70 b4 b2 f5 bc 3a 0e 40
       -0.803252165058379 3.77868072463621
000180 41 d2 5c 94 ab 84 12 40 0c ec 3b 67 46 6e fe bf
       4.62956077400719 -1.9019226105290299
000190 f9 42 48 78 34 cc 21 40 07 ac 0c 70 e0 b9 fe 3f
       8.89883781320667 1.92038005608879
0001a0 08 48 7d 0a f4 ec fb bf 7c ee ec 29 35 fd f5 3f
       -1.74534992310919 1.37431827904848
0001b0 ec 57 10 4a f5 6c 03 40 97 dd d8 a9 b6 3b cf bf
       2.42820222723366 -0.244009812291307
0001c0 c5 fc cb d2 a3 78 d8 3f 37 fb 6b bc 9b 49 e8 bf
       0.382363277298236 -0.758985393534977
0001d0 cc f9 33 19 2b 97 00 c0 58 74 c9 36 44 6a f6 3f
       -2.07381267251842 1.40094396020074
0001e0 b4 89 e6 48 4b 78 0a c0 93 b7 6e 0f 57 8c 13 40
       -3.3087373442988 4.88705085862411
0001f0 c4 c0 f1 70 10 35 0c 40 3c bd f7 d6 c8 15 01 c0
       3.52591026532909 -2.13563697761097
000200 7d 69 62 25 00 d9 0b c0 c9 5b f9 2b e2 95 09 c0
       -3.48095730978565 -3.19818529467327
000210 c9 dc 7b ef cc de df 3f fc 92 e4 6c f6 f7 f5 bf
       0.497973665114341 -1.37303774391438
000220 7b ca c1 5c e4 dc 12 40 1e 80 e8 95 7f 29 23 c0
       4.71571488316351 -9.58105152571812
000230 11 aa c2 73 0c f9 03 40 81 17 2f 52 dc fc 05 40
       2.49660578191584 2.74846710401738
000240 89 d9 e6 b6 07 55 11 c0 31 a8 e6 3d 9d e5 0e 40
       -4.33303724082942 3.86211632118377
000250 41 8b fd 70 46 4b dd 3f 8f 5e 3c 17 04 2a 1e c0
       0.457719431249803 -7.54103123002973
000260 18 6c c8 5d ae 1a e6 3f fc ab b0 72 e9 8a f6 3f
       0.69075697247479 1.40891403961973
000270 88 87 bf 1e f4 15 d4 bf bd 3e 9e 45 2b 49 0d c0
       -0.313839941051008 -3.66072706593681
